…
        0.2000]))]), '_buffers': OrderedDict(), '_non_persistent_buffers_set': set(), '_backward_hooks': OrderedDict(), '_is_full_backward_hook': None, '_forward_hooks': OrderedDict(), '_forward_pre_hooks': OrderedDict(), '_state_dict_hooks': OrderedDict(), '_load_state_dict_pre_hooks': OrderedDict(), '_modules': OrderedDict([('loss_cls', FocalLoss()), ('loss_bbox', L1Loss()), ('loss_iou', GIoULoss()), ('activate', ReLU(inplace=True)), ('positional_encoding', LearnedPositionalEncoding(num_feats=128, row_num_embed=200, col_num_embed=200)), ('transformer', PerceptionTransformer(
  (encoder): BEVFormerEncoder(
    (layers): ModuleList(
      (0): BEVFormerLayer(
        (attentions): ModuleList(
          (0): TemporalSelfAttention(
            (dropout): Dropout(p=0.1, inplace=False)
            (sampling_offsets): Linear(in_features=512, out_features=128, bias=True)
            (attention_weights): Linear(in_features=512, out_features=64, bias=True)
            (value_proj): Linear(in_features=256, out_features=256, bias=True)
            (output_proj): Linear(in_features=256, out_features=256, bias=True)
          )
          (1): SpatialCrossAttention(
            (dropout): Dropout(p=0.1, inplace=False)
            (deformable_attention): MSDeformableAttention3D(
              (sampling_offsets): Linear(in_features=256, out_features=512, bias=True)
              (attention_weights): Linear(in_features=256, out_features=256, bias=True)
              (value_proj): Linear(in_features=256, out_features=256, bias=True)
            )
            (output_proj): Linear(in_features=256, out_features=256, bias=True)
          )
        )
        (ffns): ModuleList(
          (0): FFN(
            (activate): ReLU(inplace=True)
            (layers): Sequential(
              (0): Sequential(
                (0): Linear(in_features=256, out_features=512, bias=True)
                (1): ReLU(inplace=True)
                (2): Dropout(p=0.1, inplace=False)
              )
              (1): Linear(in_features=512, out_features=256, bias=True)
              (2): Dropout(p=0.1, inplace=False)
            )
            (dropout_layer): Identity()
          )
        )
        (norms): ModuleList(
          (0): LayerNorm((256,), eps=1e-05, elementwise_affine=True)
          (1): LayerNorm((256,), eps=1e-05, elementwise_affine=True)
          (2): LayerNorm((256,), eps=1e-05, elementwise_affine=True)
        )
      )
      (1): BEVFormerLayer(
        (attentions): ModuleList(
          (0): TemporalSelfAttention(
            (dropout): Dropout(p=0.1, inplace=False)
            (sampling_offsets): Linear(in_features=512, out_features=128, bias=True)
            (attention_weights): Linear(in_features=512, out_features=64, bias=True)
            (value_proj): Linear(in_features=256, out_features=256, bias=True)
            (output_proj): Linear(in_features=256, out_features=256, bias=True)
          )
          (1): SpatialCrossAttention(
            (dropout): Dropout(p=0.1, inplace=False)
            (deformable_attention): MSDeformableAttention3D(
              (sampling_offsets): Linear(in_features=256, out_features=512, bias=True)
              (attention_weights): Linear(in_features=256, out_features=256, bias=True)
              (value_proj): Linear(in_features=256, out_features=256, bias=True)
            )
            (output_proj): Linear(in_features=256, out_features=256, bias=True)
          )
        )
        (ffns): ModuleList(
          (0): FFN(
            (activate): ReLU(inplace=True)
            (layers): Sequential(
              (0): Sequential(
                (0): Linear(in_features=256, out_features=512, bias=True)
                (1): ReLU(inplace=True)
                (2): Dropout(p=0.1, inplace=False)
              )
              (1): Linear(in_features=512, out_features=256, bias=True)
              (2): Dropout(p=0.1, inplace=False)
            )
            (dropout_layer): Identity()
          )
        )
        (norms): ModuleList(
          (0): LayerNorm((256,), eps=1e-05, elementwise_affine=True)
          (1): LayerNorm((256,), eps=1e-05, elementwise_affine=True)
          (2): LayerNorm((256,), eps=1e-05, elementwise_affine=True)
        )
      )
      (2): BEVFormerLayer(
        (attentions): ModuleList(
          (0): TemporalSelfAttention(
            (dropout): Dropout(p=0.1, inplace=False)
            (sampling_offsets): Linear(in_features=512, out_features=128, bias=True)
            (attention_weights): Linear(in_features=512, out_features=64, bias=True)
            (value_proj): Linear(in_features=256, out_features=256, bias=True)
            (output_proj): Linear(in_features=256, out_features=256, bias=True)
          )
          (1): SpatialCrossAttention(
            (dropout): Dropout(p=0.1, inplace=False)
            (deformable_attention): MSDeformableAttention3D(
              (sampling_offsets): Linear(in_features=256, out_features=512, bias=True)
              (attention_weights): Linear(in_features=256, out_features=256, bias=True)
              (value_proj): Linear(in_features=256, out_features=256, bias=True)
            )
            (output_proj): Linear(in_features=256, out_features=256, bias=True)
          )
        )
        (ffns): ModuleList(
          (0): FFN(
            (activate): ReLU(inplace=True)
            (layers): Sequential(
              (0): Sequential(
                (0): Linear(in_features=256, out_features=512, bias=True)
                (1): ReLU(inplace=True)
                (2): Dropout(p=0.1, inplace=False)
              )
              (1): Linear(in_features=512, out_features=256, bias=True)
              (2): Dropout(p=0.1, inplace=False)
            )
            (dropout_layer): Identity()
          )
        )
        (norms): ModuleList(
          (0): LayerNorm((256,), eps=1e-05, elementwise_affine=True)
          (1): LayerNorm((256,), eps=1e-05, elementwise_affine=True)
          (2): LayerNorm((256,), eps=1e-05, elementwise_affine=True)
        )
      )
      (3): BEVFormerLayer(
        (attentions): ModuleList(
          (0): TemporalSelfAttention(
            (dropout): Dropout(p=0.1, inplace=False)
            (sampling_offsets): Linear(in_features=512, out_features=128, bias=True)
            (attention_weights): Linear(in_features=512, out_features=64, bias=True)
            (value_proj): Linear(in_features=256, out_features=256, bias=True)
            (output_proj): Linear(in_features=256, out_features=256, bias=True)
          )
          (1): SpatialCrossAttention(
            (dropout): Dropout(p=0.1, inplace=False)
            (deformable_attention): MSDeformableAttention3D(
              (sampling_offsets): Linear(in_features=256, out_features=512, bias=True)
              (attention_weights): Linear(in_features=256, out_features=256, bias=True)
              (value_proj): Linear(in_features=256, out_features=256, bias=True)
            )
            (output_proj): Linear(in_features=256, out_features=256, bias=True)
          )
        )
        (ffns): ModuleList(
          (0): FFN(
            (activate): ReLU(inplace=True)
            (layers): Sequential(
              (0): Sequential(
                (0): Linear(in_features=256, out_features=512, bias=True)
                (1): ReLU(inplace=True)
                (2): Dropout(p=0.1, inplace=False)
              )
              (1): Linear(in_features=512, out_features=256, bias=True)
              (2): Dropout(p=0.1, inplace=False)
            )
            (dropout_layer): Identity()
          )
        )
        (norms): ModuleList(
          (0): LayerNorm((256,), eps=1e-05, elementwise_affine=True)
          (1): LayerNorm((256,), eps=1e-05, elementwise_affine=True)
          (2): LayerNorm((256,), eps=1e-05, elementwise_affine=True)
        )
      )
      (4): BEVFormerLayer(
        (attentions): ModuleList(
          (0): TemporalSelfAttention(
            (dropout): Dropout(p=0.1, inplace=False)
            (sampling_offsets): Linear(in_features=512, out_features=128, bias=True)
            (attention_weights): Linear(in_features=512, out_features=64, bias=True)
            (value_proj): Linear(in_features=256, out_features=256, bias=True)
            (output_proj): Linear(in_features=256, out_features=256, bias=True)
          )
          (1): SpatialCrossAttention(
            (dropout): Dropout(p=0.1, inplace=False)
            (deformable_attention): MSDeformableAttention3D(
              (sampling_offsets): Linear(in_features=256, out_features=512, bias=True)
              (attention_weights): Linear(in_features=256, out_features=256, bias=True)
              (value_proj): Linear(in_features=256, out_features=256, bias=True)
            )
            (output_proj): Linear(in_features=256, out_features=256, bias=True)
          )
        )
        (ffns): ModuleList(
          (0): FFN(
            (activate): ReLU(inplace=True)
            (layers): Sequential(
              (0): Sequential(
                (0): Linear(in_features=256, out_features=512, bias=True)
                (1): ReLU(inplace=True)
                (2): Dropout(p=0.1, inplace=False)
              )
              (1): Linear(in_features=512, out_features=256, bias=True)
              (2): Dropout(p=0.1, inplace=False)
            )
            (dropout_layer): Identity()
          )
        )
        (norms): ModuleList(
          (0): LayerNorm((256,), eps=1e-05, elementwise_affine=True)
          (1): LayerNorm((256,), eps=1e-05, elementwise_affine=True)
          (2): LayerNorm((256,), eps=1e-05, elementwise_affine=True)
        )
      )
      (5): BEVFormerLayer(
        (attentions): ModuleList(
          (0): TemporalSelfAttention(
            (dropout): Dropout(p=0.1, inplace=False)
            (sampling_offsets): Linear(in_features=512, out_features=128, bias=True)
            (attention_weights): Linear(in_features=512, out_features=64, bias=True)
            (value_proj): Linear(in_features=256, out_features=256, bias=True)
            (output_proj): Linear(in_features=256, out_features=256, bias=True)
          )
          (1): SpatialCrossAttention(
            (dropout): Dropout(p=0.1, inplace=False)
            (deformable_attention): MSDeformableAttention3D(
              (sampling_offsets): Linear(in_features=256, out_features=512, bias=True)
              (attention_weights): Linear(in_features=256, out_features=256, bias=True)
              (value_proj): Linear(in_features=256, out_features=256, bias=True)
            )
            (output_proj): Linear(in_features=256, out_features=256, bias=True)
          )
        )
        (ffns): ModuleList(
          (0): FFN(
            (activate): ReLU(inplace=True)
            (layers): Sequential(
              (0): Sequential(
                (0): Linear(in_features=256, out_features=512, bias=True)
                (1): ReLU(inplace=True)
                (2): Dropout(p=0.1, inplace=False)
              )
              (1): Linear(in_features=512, out_features=256, bias=True)
              (2): Dropout(p=0.1, inplace=False)
            )
            (dropout_layer): Identity()
          )
        )
        (norms): ModuleList(
          (0): LayerNorm((256,), eps=1e-05, elementwise_affine=True)
          (1): LayerNorm((256,), eps=1e-05, elementwise_affine=True)
          (2): LayerNorm((256,), eps=1e-05, elementwise_affine=True)
        )
      )
    )
  )
  (decoder): DetectionTransformerDecoder(
    (layers): ModuleList(
      (0): DetrTransformerDecoderLayer(
        (attentions): ModuleList(
          (0): MultiheadAttention(
            (attn): MultiheadAttention(
              (out_proj): NonDynamicallyQuantizableLinear(in_features=256, out_features=256, bias=True)
            )
            (proj_drop): Dropout(p=0.0, inplace=False)
            (dropout_layer): Dropout(p=0.1, inplace=False)
          )
          (1): CustomMSDeformableAttention(
            (dropout): Dropout(p=0.1, inplace=False)
            (sampling_offsets): Linear(in_features=256, out_features=64, bias=True)
            (attention_weights): Linear(in_features=256, out_features=32, bias=True)
            (value_proj): Linear(in_features=256, out_features=256, bias=True)
            (output_proj): Linear(in_features=256, out_features=256, bias=True)
          )
        )
        (ffns): ModuleList(
          (0): FFN(
            (activate): ReLU(inplace=True)
            (layers): Sequential(
              (0): Sequential(
                (0): Linear(in_features=256, out_features=512, bias=True)
                (1): ReLU(inplace=True)
                (2): Dropout(p=0.1, inplace=False)
              )
              (1): Linear(in_features=512, out_features=256, bias=True)
              (2): Dropout(p=0.1, inplace=False)
            )
            (dropout_layer): Identity()
          )
        )
        (norms): ModuleList(
          (0): LayerNorm((256,), eps=1e-05, elementwise_affine=True)
          (1): LayerNorm((256,), eps=1e-05, elementwise_affine=True)
          (2): LayerNorm((256,), eps=1e-05, elementwise_affine=True)
        )
      )
      (1): DetrTransformerDecoderLayer(
        (attentions): ModuleList(
          (0): MultiheadAttention(
            (attn): MultiheadAttention(
              (out_proj): NonDynamicallyQuantizableLinear(in_features=256, out_features=256, bias=True)
            )
            (proj_drop): Dropout(p=0.0, inplace=False)
            (dropout_layer): Dropout(p=0.1, inplace=False)
          )
          (1): CustomMSDeformableAttention(
            (dropout): Dropout(p=0.1, inplace=False)
            (sampling_offsets): Linear(in_features=256, out_features=64, bias=True)
            (attention_weights): Linear(in_features=256, out_features=32, bias=True)
            (value_proj): Linear(in_features=256, out_features=256, bias=True)
            (output_proj): Linear(in_features=256, out_features=256, bias=True)
          )
        )
        (ffns): ModuleList(
          (0): FFN(
            (activate): ReLU(inplace=True)
            (layers): Sequential(
              (0): Sequential(
                (0): Linear(in_features=256, out_features=512, bias=True)
                (1): ReLU(inplace=True)
                (2): Dropout(p=0.1, inplace=False)
              )
              (1): Linear(in_features=512, out_features=256, bias=True)
              (2): Dropout(p=0.1, inplace=False)
            )
            (dropout_layer): Identity()
          )
        )
        (norms): ModuleList(
          (0): LayerNorm((256,), eps=1e-05, elementwise_affine=True)
          (1): LayerNorm((256,), eps=1e-05, elementwise_affine=True)
          (2): LayerNorm((256,), eps=1e-05, elementwise_affine=True)
        )
      )
      (2): DetrTransformerDecoderLayer(
        (attentions): ModuleList(
          (0): MultiheadAttention(
            (attn): MultiheadAttention(
              (out_proj): NonDynamicallyQuantizableLinear(in_features=256, out_features=256, bias=True)
            )
            (proj_drop): Dropout(p=0.0, inplace=False)
            (dropout_layer): Dropout(p=0.1, inplace=False)
          )
          (1): CustomMSDeformableAttention(
            (dropout): Dropout(p=0.1, inplace=False)
            (sampling_offsets): Linear(in_features=256, out_features=64, bias=True)
            (attention_weights): Linear(in_features=256, out_features=32, bias=True)
            (value_proj): Linear(in_features=256, out_features=256, bias=True)
            (output_proj): Linear(in_features=256, out_features=256, bias=True)
          )
        )
        (ffns): ModuleList(
          (0): FFN(
            (activate): ReLU(inplace=True)
            (layers): Sequential(
              (0): Sequential(
                (0): Linear(in_features=256, out_features=512, bias=True)
                (1): ReLU(inplace=True)
                (2): Dropout(p=0.1, inplace=False)
              )
              (1): Linear(in_features=512, out_features=256, bias=True)
              (2): Dropout(p=0.1, inplace=False)
            )
            (dropout_layer): Identity()
          )
        )
        (norms): ModuleList(
          (0): LayerNorm((256,), eps=1e-05, elementwise_affine=True)
          (1): LayerNorm((256,), eps=1e-05, elementwise_affine=True)
          (2): LayerNorm((256,), eps=1e-05, elementwise_affine=True)
        )
      )
      (3): DetrTransformerDecoderLayer(
        (attentions): ModuleList(
          (0): MultiheadAttention(
            (attn): MultiheadAttention(
              (out_proj): NonDynamicallyQuantizableLinear(in_features=256, out_features=256, bias=True)
            )
            (proj_drop): Dropout(p=0.0, inplace=False)
            (dropout_layer): Dropout(p=0.1, inplace=False)
          )
          (1): CustomMSDeformableAttention(
            (dropout): Dropout(p=0.1, inplace=False)
            (sampling_offsets): Linear(in_features=256, out_features=64, bias=True)
            (attention_weights): Linear(in_features=256, out_features=32, bias=True)
            (value_proj): Linear(in_features=256, out_features=256, bias=True)
            (output_proj): Linear(in_features=256, out_features=256, bias=True)
          )
        )
        (ffns): ModuleList(
          (0): FFN(
            (activate): ReLU(inplace=True)
            (layers): Sequential(
              (0): Sequential(
                (0): Linear(in_features=256, out_features=512, bias=True)
                (1): ReLU(inplace=True)
                (2): Dropout(p=0.1, inplace=False)
              )
              (1): Linear(in_features=512, out_features=256, bias=True)
              (2): Dropout(p=0.1, inplace=False)
            )
            (dropout_layer): Identity()
          )
        )
        (norms): ModuleList(
          (0): LayerNorm((256,), eps=1e-05, elementwise_affine=True)
          (1): LayerNorm((256,), eps=1e-05, elementwise_affine=True)
          (2): LayerNorm((256,), eps=1e-05, elementwise_affine=True)
        )
      )
      (4): DetrTransformerDecoderLayer(
        (attentions): ModuleList(
          (0): MultiheadAttention(
            (attn): MultiheadAttention(
              (out_proj): NonDynamicallyQuantizableLinear(in_features=256, out_features=256, bias=True)
            )
            (proj_drop): Dropout(p=0.0, inplace=False)
            (dropout_layer): Dropout(p=0.1, inplace=False)
          )
          (1): CustomMSDeformableAttention(
            (dropout): Dropout(p=0.1, inplace=False)
            (sampling_offsets): Linear(in_features=256, out_features=64, bias=True)
            (attention_weights): Linear(in_features=256, out_features=32, bias=True)
            (value_proj): Linear(in_features=256, out_features=256, bias=True)
            (output_proj): Linear(in_features=256, out_features=256, bias=True)
          )
        )
        (ffns): ModuleList(
          (0): FFN(
            (activate): ReLU(inplace=True)
            (layers): Sequential(
              (0): Sequential(
                (0): Linear(in_features=256, out_features=512, bias=True)
                (1): ReLU(inplace=True)
                (2): Dropout(p=0.1, inplace=False)
              )
              (1): Linear(in_features=512, out_features=256, bias=True)
              (2): Dropout(p=0.1, inplace=False)
            )
            (dropout_layer): Identity()
          )
        )
        (norms): ModuleList(
          (0): LayerNorm((256,), eps=1e-05, elementwise_affine=True)
          (1): LayerNorm((256,), eps=1e-05, elementwise_affine=True)
          (2): LayerNorm((256,), eps=1e-05, elementwise_affine=True)
        )
      )
      (5): DetrTransformerDecoderLayer(
        (attentions): ModuleList(
          (0): MultiheadAttention(
            (attn): MultiheadAttention(
              (out_proj): NonDynamicallyQuantizableLinear(in_features=256, out_features=256, bias=True)
            )
            (proj_drop): Dropout(p=0.0, inplace=False)
            (dropout_layer): Dropout(p=0.1, inplace=False)
          )
          (1): CustomMSDeformableAttention(
            (dropout): Dropout(p=0.1, inplace=False)
            (sampling_offsets): Linear(in_features=256, out_features=64, bias=True)
            (attention_weights): Linear(in_features=256, out_features=32, bias=True)
            (value_proj): Linear(in_features=256, out_features=256, bias=True)
            (output_proj): Linear(in_features=256, out_features=256, bias=True)
          )
        )
        (ffns): ModuleList(
          (0): FFN(
            (activate): ReLU(inplace=True)
            (layers): Sequential(
              (0): Sequential(
                (0): Linear(in_features=256, out_features=512, bias=True)
                (1): ReLU(inplace=True)
                (2): Dropout(p=0.1, inplace=False)
              )
              (1): Linear(in_features=512, out_features=256, bias=True)
              (2): Dropout(p=0.1, inplace=False)
            )
            (dropout_layer): Identity()
          )
        )
        (norms): ModuleList(
          (0): LayerNorm((256,), eps=1e-05, elementwise_affine=True)
          (1): LayerNorm((256,), eps=1e-05, elementwise_affine=True)
          (2): LayerNorm((256,), eps=1e-05, elementwise_affine=True)
        )
      )
    )
  )
  (reference_points): Linear(in_features=256, out_features=3, bias=True)
  (can_bus_mlp): Sequential(
    (0): Linear(in_features=18, out_features=128, bias=True)
    (1): ReLU(inplace=True)
    (2): Linear(in_features=128, out_features=256, bias=True)
    (3): ReLU(inplace=True)
    (norm): LayerNorm((256,), eps=1e-05, elementwise_affine=True)
  )
)), ('cls_branches', ModuleList(
  (0): Sequential(
    (0): Linear(in_features=256, out_features=256, bias=True)
    (1): LayerNorm((256,), eps=1e-05, elementwise_affine=True)
    (2): ReLU(inplace=True)
    (3): Linear(in_features=256, out_features=256, bias=True)
    (4): LayerNorm((256,), eps=1e-05, elementwise_affine=True)
    (5): ReLU(inplace=True)
    (6): Linear(in_features=256, out_features=10, bias=True)
  )
  (1): Sequential(
    (0): Linear(in_features=256, out_features=256, bias=True)
    (1): LayerNorm((256,), eps=1e-05, elementwise_affine=True)
    (2): ReLU(inplace=True)
    (3): Linear(in_features=256, out_features=256, bias=True)
    (4): LayerNorm((256,), eps=1e-05, elementwise_affine=True)
    (5): ReLU(inplace=True)
    (6): Linear(in_features=256, out_features=10, bias=True)
  )
  (2): Sequential(
    (0): Linear(in_features=256, out_features=256, bias=True)
    (1): LayerNorm((256,), eps=1e-05, elementwise_affine=True)
    (2): ReLU(inplace=True)
    (3): Linear(in_features=256, out_features=256, bias=True)
    (4): LayerNorm((256,), eps=1e-05, elementwise_affine=True)
    (5): ReLU(inplace=True)
    (6): Linear(in_features=256, out_features=10, bias=True)
  )
  (3): Sequential(
    (0): Linear(in_features=256, out_features=256, bias=True)
    (1): LayerNorm((256,), eps=1e-05, elementwise_affine=True)
    (2): ReLU(inplace=True)
    (3): Linear(in_features=256, out_features=256, bias=True)
    (4): LayerNorm((256,), eps=1e-05, elementwise_affine=True)
    (5): ReLU(inplace=True)
    (6): Linear(in_features=256, out_features=10, bias=True)
  )
  (4): Sequential(
    (0): Linear(in_features=256, out_features=256, bias=True)
    (1): LayerNorm((256,), eps=1e-05, elementwise_affine=True)
    (2): ReLU(inplace=True)
    (3): Linear(in_features=256, out_features=256, bias=True)
    (4): LayerNorm((256,), eps=1e-05, elementwise_affine=True)
    (5): ReLU(inplace=True)
    (6): Linear(in_features=256, out_features=10, bias=True)
  )
  (5): Sequential(
    (0): Linear(in_features=256, out_features=256, bias=True)
    (1): LayerNorm((256,), eps=1e-05, elementwise_affine=True)
    (2): ReLU(inplace=True)
    (3): Linear(in_features=256, out_features=256, bias=True)
    (4): LayerNorm((256,), eps=1e-05, elementwise_affine=True)
    (5): ReLU(inplace=True)
    (6): Linear(in_features=256, out_features=10, bias=True)
  )
)), ('reg_branches', ModuleList(
  (0): Sequential(
    (0): Linear(in_features=256, out_features=256, bias=True)
    (1): ReLU()
    (2): Linear(in_features=256, out_features=256, bias=True)
    (3): ReLU()
    (4): Linear(in_features=256, out_features=10, bias=True)
  )
  (1): Sequential(
    (0): Linear(in_features=256, out_features=256, bias=True)
    (1): ReLU()
    (2): Linear(in_features=256, out_features=256, bias=True)
    (3): ReLU()
    (4): Linear(in_features=256, out_features=10, bias=True)
  )
  (2): Sequential(
    (0): Linear(in_features=256, out_features=256, bias=True)
    (1): ReLU()
    (2): Linear(in_features=256, out_features=256, bias=True)
    (3): ReLU()
    (4): Linear(in_features=256, out_features=10, bias=True)
  )
  (3): Sequential(
    (0): Linear(in_features=256, out_features=256, bias=True)
    (1): ReLU()
    (2): Linear(in_features=256, out_features=256, bias=True)
    (3): ReLU()
    (4): Linear(in_features=256, out_features=10, bias=True)
  )
  (4): Sequential(
    (0): Linear(in_features=256, out_features=256, bias=True)
    (1): ReLU()
    (2): Linear(in_features=256, out_features=256, bias=True)
    (3): ReLU()
    (4): Linear(in_features=256, out_features=10, bias=True)
  )
  (5): Sequential(
    (0): Linear(in_features=256, out_features=256, bias=True)
    (1): ReLU()
    (2): Linear(in_features=256, out_features=256, bias=True)
    (3): ReLU()
    (4): Linear(in_features=256, out_features=10, bias=True)
  )
)), ('bev_embedding', Embedding(40000, 256)), ('query_embedding', Embedding(900, 512))]), '_is_init': False, 'init_cfg': None, 'bg_cls_weight': 0, 'sync_cls_avg_factor': True, 'num_query': 900, 'num_classes': 10, 'in_channels': 256, 'num_reg_fcs': 2, 'train_cfg': None, 'test_cfg': None, 'cls_out_channels': 10, 'act_cfg': {'type': 'ReLU', 'inplace': True}, 'embed_dims': 256}
…
        0.2000]))]), '_buffers': OrderedDict(), '_non_persistent_buffers_set': set(), '_backward_hooks': OrderedDict(), '_is_full_backward_hook': None, '_forward_hooks': OrderedDict(), '_forward_pre_hooks': OrderedDict(), '_state_dict_hooks': OrderedDict(), '_load_state_dict_pre_hooks': OrderedDict(), '_modules': OrderedDict([('loss_cls', FocalLoss()), ('loss_bbox', L1Loss()), ('loss_iou', GIoULoss()), ('activate', ReLU(inplace=True)), ('positional_encoding', LearnedPositionalEncoding(num_feats=128, row_num_embed=50, col_num_embed=50)), ('transformer', PerceptionTransformer(
  (encoder): BEVFormerEncoder(
    (layers): ModuleList(
      (0): BEVFormerLayer(
        (attentions): ModuleList(
          (0): TemporalSelfAttention(
            (dropout): Dropout(p=0.1, inplace=False)
            (sampling_offsets): Linear(in_features=512, out_features=128, bias=True)
            (attention_weights): Linear(in_features=512, out_features=64, bias=True)
            (value_proj): Linear(in_features=256, out_features=256, bias=True)
            (output_proj): Linear(in_features=256, out_features=256, bias=True)
          )
          (1): SpatialCrossAttention(
            (dropout): Dropout(p=0.1, inplace=False)
            (deformable_attention): MSDeformableAttention3D(
              (sampling_offsets): Linear(in_features=256, out_features=128, bias=True)
              (attention_weights): Linear(in_features=256, out_features=64, bias=True)
              (value_proj): Linear(in_features=256, out_features=256, bias=True)
            )
            (output_proj): Linear(in_features=256, out_features=256, bias=True)
          )
        )
        (ffns): ModuleList(
          (0): FFN(
            (activate): ReLU(inplace=True)
            (layers): Sequential(
              (0): Sequential(
                (0): Linear(in_features=256, out_features=512, bias=True)
                (1): ReLU(inplace=True)
                (2): Dropout(p=0.1, inplace=False)
              )
              (1): Linear(in_features=512, out_features=256, bias=True)
              (2): Dropout(p=0.1, inplace=False)
            )
            (dropout_layer): Identity()
          )
        )
        (norms): ModuleList(
          (0): LayerNorm((256,), eps=1e-05, elementwise_affine=True)
          (1): LayerNorm((256,), eps=1e-05, elementwise_affine=True)
          (2): LayerNorm((256,), eps=1e-05, elementwise_affine=True)
        )
      )
      (1): BEVFormerLayer(
        (attentions): ModuleList(
          (0): TemporalSelfAttention(
            (dropout): Dropout(p=0.1, inplace=False)
            (sampling_offsets): Linear(in_features=512, out_features=128, bias=True)
            (attention_weights): Linear(in_features=512, out_features=64, bias=True)
            (value_proj): Linear(in_features=256, out_features=256, bias=True)
            (output_proj): Linear(in_features=256, out_features=256, bias=True)
          )
          (1): SpatialCrossAttention(
            (dropout): Dropout(p=0.1, inplace=False)
            (deformable_attention): MSDeformableAttention3D(
              (sampling_offsets): Linear(in_features=256, out_features=128, bias=True)
              (attention_weights): Linear(in_features=256, out_features=64, bias=True)
              (value_proj): Linear(in_features=256, out_features=256, bias=True)
            )
            (output_proj): Linear(in_features=256, out_features=256, bias=True)
          )
        )
        (ffns): ModuleList(
          (0): FFN(
            (activate): ReLU(inplace=True)
            (layers): Sequential(
              (0): Sequential(
                (0): Linear(in_features=256, out_features=512, bias=True)
                (1): ReLU(inplace=True)
                (2): Dropout(p=0.1, inplace=False)
              )
              (1): Linear(in_features=512, out_features=256, bias=True)
              (2): Dropout(p=0.1, inplace=False)
            )
            (dropout_layer): Identity()
          )
        )
        (norms): ModuleList(
          (0): LayerNorm((256,), eps=1e-05, elementwise_affine=True)
          (1): LayerNorm((256,), eps=1e-05, elementwise_affine=True)
          (2): LayerNorm((256,), eps=1e-05, elementwise_affine=True)
        )
      )
      (2): BEVFormerLayer(
        (attentions): ModuleList(
          (0): TemporalSelfAttention(
            (dropout): Dropout(p=0.1, inplace=False)
            (sampling_offsets): Linear(in_features=512, out_features=128, bias=True)
            (attention_weights): Linear(in_features=512, out_features=64, bias=True)
            (value_proj): Linear(in_features=256, out_features=256, bias=True)
            (output_proj): Linear(in_features=256, out_features=256, bias=True)
          )
          (1): SpatialCrossAttention(
            (dropout): Dropout(p=0.1, inplace=False)
            (deformable_attention): MSDeformableAttention3D(
              (sampling_offsets): Linear(in_features=256, out_features=128, bias=True)
              (attention_weights): Linear(in_features=256, out_features=64, bias=True)
              (value_proj): Linear(in_features=256, out_features=256, bias=True)
            )
            (output_proj): Linear(in_features=256, out_features=256, bias=True)
          )
        )
        (ffns): ModuleList(
          (0): FFN(
            (activate): ReLU(inplace=True)
            (layers): Sequential(
              (0): Sequential(
                (0): Linear(in_features=256, out_features=512, bias=True)
                (1): ReLU(inplace=True)
                (2): Dropout(p=0.1, inplace=False)
              )
              (1): Linear(in_features=512, out_features=256, bias=True)
              (2): Dropout(p=0.1, inplace=False)
            )
            (dropout_layer): Identity()
          )
        )
        (norms): ModuleList(
          (0): LayerNorm((256,), eps=1e-05, elementwise_affine=True)
          (1): LayerNorm((256,), eps=1e-05, elementwise_affine=True)
          (2): LayerNorm((256,), eps=1e-05, elementwise_affine=True)
        )
      )
    )
  )
  (decoder): DetectionTransformerDecoder(
    (layers): ModuleList(
      (0): DetrTransformerDecoderLayer(
        (attentions): ModuleList(
          (0): MultiheadAttention(
            (attn): MultiheadAttention(
              (out_proj): NonDynamicallyQuantizableLinear(in_features=256, out_features=256, bias=True)
            )
            (proj_drop): Dropout(p=0.0, inplace=False)
            (dropout_layer): Dropout(p=0.1, inplace=False)
          )
          (1): CustomMSDeformableAttention(
            (dropout): Dropout(p=0.1, inplace=False)
            (sampling_offsets): Linear(in_features=256, out_features=64, bias=True)
            (attention_weights): Linear(in_features=256, out_features=32, bias=True)
            (value_proj): Linear(in_features=256, out_features=256, bias=True)
            (output_proj): Linear(in_features=256, out_features=256, bias=True)
          )
        )
        (ffns): ModuleList(
          (0): FFN(
            (activate): ReLU(inplace=True)
            (layers): Sequential(
              (0): Sequential(
                (0): Linear(in_features=256, out_features=512, bias=True)
                (1): ReLU(inplace=True)
                (2): Dropout(p=0.1, inplace=False)
              )
              (1): Linear(in_features=512, out_features=256, bias=True)
              (2): Dropout(p=0.1, inplace=False)
            )
            (dropout_layer): Identity()
          )
        )
        (norms): ModuleList(
          (0): LayerNorm((256,), eps=1e-05, elementwise_affine=True)
          (1): LayerNorm((256,), eps=1e-05, elementwise_affine=True)
          (2): LayerNorm((256,), eps=1e-05, elementwise_affine=True)
        )
      )
      (1): DetrTransformerDecoderLayer(
        (attentions): ModuleList(
          (0): MultiheadAttention(
            (attn): MultiheadAttention(
              (out_proj): NonDynamicallyQuantizableLinear(in_features=256, out_features=256, bias=True)
            )
            (proj_drop): Dropout(p=0.0, inplace=False)
            (dropout_layer): Dropout(p=0.1, inplace=False)
          )
          (1): CustomMSDeformableAttention(
            (dropout): Dropout(p=0.1, inplace=False)
            (sampling_offsets): Linear(in_features=256, out_features=64, bias=True)
            (attention_weights): Linear(in_features=256, out_features=32, bias=True)
            (value_proj): Linear(in_features=256, out_features=256, bias=True)
            (output_proj): Linear(in_features=256, out_features=256, bias=True)
          )
        )
        (ffns): ModuleList(
          (0): FFN(
            (activate): ReLU(inplace=True)
            (layers): Sequential(
              (0): Sequential(
                (0): Linear(in_features=256, out_features=512, bias=True)
                (1): ReLU(inplace=True)
                (2): Dropout(p=0.1, inplace=False)
              )
              (1): Linear(in_features=512, out_features=256, bias=True)
              (2): Dropout(p=0.1, inplace=False)
            )
            (dropout_layer): Identity()
          )
        )
        (norms): ModuleList(
          (0): LayerNorm((256,), eps=1e-05, elementwise_affine=True)
          (1): LayerNorm((256,), eps=1e-05, elementwise_affine=True)
          (2): LayerNorm((256,), eps=1e-05, elementwise_affine=True)
        )
      )
      (2): DetrTransformerDecoderLayer(
        (attentions): ModuleList(
          (0): MultiheadAttention(
            (attn): MultiheadAttention(
              (out_proj): NonDynamicallyQuantizableLinear(in_features=256, out_features=256, bias=True)
            )
            (proj_drop): Dropout(p=0.0, inplace=False)
            (dropout_layer): Dropout(p=0.1, inplace=False)
          )
          (1): CustomMSDeformableAttention(
            (dropout): Dropout(p=0.1, inplace=False)
            (sampling_offsets): Linear(in_features=256, out_features=64, bias=True)
            (attention_weights): Linear(in_features=256, out_features=32, bias=True)
            (value_proj): Linear(in_features=256, out_features=256, bias=True)
            (output_proj): Linear(in_features=256, out_features=256, bias=True)
          )
        )
        (ffns): ModuleList(
          (0): FFN(
            (activate): ReLU(inplace=True)
            (layers): Sequential(
              (0): Sequential(
                (0): Linear(in_features=256, out_features=512, bias=True)
                (1): ReLU(inplace=True)
                (2): Dropout(p=0.1, inplace=False)
              )
              (1): Linear(in_features=512, out_features=256, bias=True)
              (2): Dropout(p=0.1, inplace=False)
            )
            (dropout_layer): Identity()
          )
        )
        (norms): ModuleList(
          (0): LayerNorm((256,), eps=1e-05, elementwise_affine=True)
          (1): LayerNorm((256,), eps=1e-05, elementwise_affine=True)
          (2): LayerNorm((256,), eps=1e-05, elementwise_affine=True)
        )
      )
      (3): DetrTransformerDecoderLayer(
        (attentions): ModuleList(
          (0): MultiheadAttention(
            (attn): MultiheadAttention(
              (out_proj): NonDynamicallyQuantizableLinear(in_features=256, out_features=256, bias=True)
            )
            (proj_drop): Dropout(p=0.0, inplace=False)
            (dropout_layer): Dropout(p=0.1, inplace=False)
          )
          (1): CustomMSDeformableAttention(
            (dropout): Dropout(p=0.1, inplace=False)
            (sampling_offsets): Linear(in_features=256, out_features=64, bias=True)
            (attention_weights): Linear(in_features=256, out_features=32, bias=True)
            (value_proj): Linear(in_features=256, out_features=256, bias=True)
            (output_proj): Linear(in_features=256, out_features=256, bias=True)
          )
        )
        (ffns): ModuleList(
          (0): FFN(
            (activate): ReLU(inplace=True)
            (layers): Sequential(
              (0): Sequential(
                (0): Linear(in_features=256, out_features=512, bias=True)
                (1): ReLU(inplace=True)
                (2): Dropout(p=0.1, inplace=False)
              )
              (1): Linear(in_features=512, out_features=256, bias=True)
              (2): Dropout(p=0.1, inplace=False)
            )
            (dropout_layer): Identity()
          )
        )
        (norms): ModuleList(
          (0): LayerNorm((256,), eps=1e-05, elementwise_affine=True)
          (1): LayerNorm((256,), eps=1e-05, elementwise_affine=True)
          (2): LayerNorm((256,), eps=1e-05, elementwise_affine=True)
        )
      )
      (4): DetrTransformerDecoderLayer(
        (attentions): ModuleList(
          (0): MultiheadAttention(
            (attn): MultiheadAttention(
              (out_proj): NonDynamicallyQuantizableLinear(in_features=256, out_features=256, bias=True)
            )
            (proj_drop): Dropout(p=0.0, inplace=False)
            (dropout_layer): Dropout(p=0.1, inplace=False)
          )
          (1): CustomMSDeformableAttention(
            (dropout): Dropout(p=0.1, inplace=False)
            (sampling_offsets): Linear(in_features=256, out_features=64, bias=True)
            (attention_weights): Linear(in_features=256, out_features=32, bias=True)
            (value_proj): Linear(in_features=256, out_features=256, bias=True)
            (output_proj): Linear(in_features=256, out_features=256, bias=True)
          )
        )
        (ffns): ModuleList(
          (0): FFN(
            (activate): ReLU(inplace=True)
            (layers): Sequential(
              (0): Sequential(
                (0): Linear(in_features=256, out_features=512, bias=True)
                (1): ReLU(inplace=True)
                (2): Dropout(p=0.1, inplace=False)
              )
              (1): Linear(in_features=512, out_features=256, bias=True)
              (2): Dropout(p=0.1, inplace=False)
            )
            (dropout_layer): Identity()
          )
        )
        (norms): ModuleList(
          (0): LayerNorm((256,), eps=1e-05, elementwise_affine=True)
          (1): LayerNorm((256,), eps=1e-05, elementwise_affine=True)
          (2): LayerNorm((256,), eps=1e-05, elementwise_affine=True)
        )
      )
      (5): DetrTransformerDecoderLayer(
        (attentions): ModuleList(
          (0): MultiheadAttention(
            (attn): MultiheadAttention(
              (out_proj): NonDynamicallyQuantizableLinear(in_features=256, out_features=256, bias=True)
            )
            (proj_drop): Dropout(p=0.0, inplace=False)
            (dropout_layer): Dropout(p=0.1, inplace=False)
          )
          (1): CustomMSDeformableAttention(
            (dropout): Dropout(p=0.1, inplace=False)
            (sampling_offsets): Linear(in_features=256, out_features=64, bias=True)
            (attention_weights): Linear(in_features=256, out_features=32, bias=True)
            (value_proj): Linear(in_features=256, out_features=256, bias=True)
            (output_proj): Linear(in_features=256, out_features=256, bias=True)
          )
        )
        (ffns): ModuleList(
          (0): FFN(
            (activate): ReLU(inplace=True)
            (layers): Sequential(
              (0): Sequential(
                (0): Linear(in_features=256, out_features=512, bias=True)
                (1): ReLU(inplace=True)
                (2): Dropout(p=0.1, inplace=False)
              )
              (1): Linear(in_features=512, out_features=256, bias=True)
              (2): Dropout(p=0.1, inplace=False)
            )
            (dropout_layer): Identity()
          )
        )
        (norms): ModuleList(
          (0): LayerNorm((256,), eps=1e-05, elementwise_affine=True)
          (1): LayerNorm((256,), eps=1e-05, elementwise_affine=True)
          (2): LayerNorm((256,), eps=1e-05, elementwise_affine=True)
        )
      )
    )
  )
  (reference_points): Linear(in_features=256, out_features=3, bias=True)
  (can_bus_mlp): Sequential(
    (0): Linear(in_features=18, out_features=128, bias=True)
    (1): ReLU(inplace=True)
    (2): Linear(in_features=128, out_features=256, bias=True)
    (3): ReLU(inplace=True)
    (norm): LayerNorm((256,), eps=1e-05, elementwise_affine=True)
  )
)), ('cls_branches', ModuleList(
  (0): Sequential(
    (0): Linear(in_features=256, out_features=256, bias=True)
    (1): LayerNorm((256,), eps=1e-05, elementwise_affine=True)
    (2): ReLU(inplace=True)
    (3): Linear(in_features=256, out_features=256, bias=True)
    (4): LayerNorm((256,), eps=1e-05, elementwise_affine=True)
    (5): ReLU(inplace=True)
    (6): Linear(in_features=256, out_features=10, bias=True)
  )
  (1): Sequential(
    (0): Linear(in_features=256, out_features=256, bias=True)
    (1): LayerNorm((256,), eps=1e-05, elementwise_affine=True)
    (2): ReLU(inplace=True)
    (3): Linear(in_features=256, out_features=256, bias=True)
    (4): LayerNorm((256,), eps=1e-05, elementwise_affine=True)
    (5): ReLU(inplace=True)
    (6): Linear(in_features=256, out_features=10, bias=True)
  )
  (2): Sequential(
    (0): Linear(in_features=256, out_features=256, bias=True)
    (1): LayerNorm((256,), eps=1e-05, elementwise_affine=True)
    (2): ReLU(inplace=True)
    (3): Linear(in_features=256, out_features=256, bias=True)
    (4): LayerNorm((256,), eps=1e-05, elementwise_affine=True)
    (5): ReLU(inplace=True)
    (6): Linear(in_features=256, out_features=10, bias=True)
  )
  (3): Sequential(
    (0): Linear(in_features=256, out_features=256, bias=True)
    (1): LayerNorm((256,), eps=1e-05, elementwise_affine=True)
    (2): ReLU(inplace=True)
    (3): Linear(in_features=256, out_features=256, bias=True)
    (4): LayerNorm((256,), eps=1e-05, elementwise_affine=True)
    (5): ReLU(inplace=True)
    (6): Linear(in_features=256, out_features=10, bias=True)
  )
  (4): Sequential(
    (0): Linear(in_features=256, out_features=256, bias=True)
    (1): LayerNorm((256,), eps=1e-05, elementwise_affine=True)
    (2): ReLU(inplace=True)
    (3): Linear(in_features=256, out_features=256, bias=True)
    (4): LayerNorm((256,), eps=1e-05, elementwise_affine=True)
    (5): ReLU(inplace=True)
    (6): Linear(in_features=256, out_features=10, bias=True)
  )
  (5): Sequential(
    (0): Linear(in_features=256, out_features=256, bias=True)
    (1): LayerNorm((256,), eps=1e-05, elementwise_affine=True)
    (2): ReLU(inplace=True)
    (3): Linear(in_features=256, out_features=256, bias=True)
    (4): LayerNorm((256,), eps=1e-05, elementwise_affine=True)
    (5): ReLU(inplace=True)
    (6): Linear(in_features=256, out_features=10, bias=True)
  )
)), ('reg_branches', ModuleList(
  (0): Sequential(
    (0): Linear(in_features=256, out_features=256, bias=True)
    (1): ReLU()
    (2): Linear(in_features=256, out_features=256, bias=True)
    (3): ReLU()
    (4): Linear(in_features=256, out_features=10, bias=True)
  )
  (1): Sequential(
    (0): Linear(in_features=256, out_features=256, bias=True)
    (1): ReLU()
    (2): Linear(in_features=256, out_features=256, bias=True)
    (3): ReLU()
    (4): Linear(in_features=256, out_features=10, bias=True)
  )
  (2): Sequential(
    (0): Linear(in_features=256, out_features=256, bias=True)
    (1): ReLU()
    (2): Linear(in_features=256, out_features=256, bias=True)
    (3): ReLU()
    (4): Linear(in_features=256, out_features=10, bias=True)
  )
  (3): Sequential(
    (0): Linear(in_features=256, out_features=256, bias=True)
    (1): ReLU()
    (2): Linear(in_features=256, out_features=256, bias=True)
    (3): ReLU()
    (4): Linear(in_features=256, out_features=10, bias=True)
  )
  (4): Sequential(
    (0): Linear(in_features=256, out_features=256, bias=True)
    (1): ReLU()
    (2): Linear(in_features=256, out_features=256, bias=True)
    (3): ReLU()
    (4): Linear(in_features=256, out_features=10, bias=True)
  )
  (5): Sequential(
    (0): Linear(in_features=256, out_features=256, bias=True)
    (1): ReLU()
    (2): Linear(in_features=256, out_features=256, bias=True)
    (3): ReLU()
    (4): Linear(in_features=256, out_features=10, bias=True)
  )
)), ('bev_embedding', Embedding(2500, 256)), ('query_embedding', Embedding(900, 512))]), '_is_init': False, 'init_cfg': None, 'bg_cls_weight': 0, 'sync_cls_avg_factor': True, 'num_query': 900, 'num_classes': 10, 'in_channels': 256, 'num_reg_fcs': 2, 'train_cfg': None, 'test_cfg': None, 'cls_out_channels': 10, 'act_cfg': {'type': 'ReLU', 'inplace': True}, 'embed_dims': 256}
…
